vqc_trained_weights.pth (torch, 1789 bytes, 2 tensors)

weight f4 [8]
0	0xbf31ae6e	-0.69406784
1	0x3ec468e4	0.38361275
2	0xbe81ddbe	-0.25364488
3	0xbf382e71	-0.71945864
4	0x3f0b1771	0.54332644
5	0xbeb0a8a5	-0.34503666
6	0x3ee14a67	0.44002077
7	0xbf595ee8	-0.8491044

_weights f4 [8]
0	0xbf31ae6e	-0.69406784
1	0x3ec468e4	0.38361275
2	0xbe81ddbe	-0.25364488
3	0xbf382e71	-0.71945864
4	0x3f0b1771	0.54332644
5	0xbeb0a8a5	-0.34503666
6	0x3ee14a67	0.44002077
7	0xbf595ee8	-0.8491044
